…
 'struts2' 'swing' 'swt' 'tomcat' 'unit-testing' 'user-interface'
 'web-services' 'windows' 'xml']
Number of unique words in this sample dataset: 6299073
Using trained word2vec embedding with shape: (5000, 50)
x_train shape: (426740, 240), y_train shape: (426740, 100)
x_test shape: (106686, 240), y_test shape: (106686, 100)
Train word embedding: True
loss function: binary_crossentropy
_________________________________________________________________
Layer (type)                 Output Shape              Param #
=================================================================
input_1 (InputLayer)         (None, 240)               0
_________________________________________________________________
embedding_1 (Embedding)      (None, 240, 50)           250000
_________________________________________________________________
bidirectional_1 (Bidirection (None, 240, 256)          184320
_________________________________________________________________
dropout_1 (Dropout)          (None, 240, 256)          0
_________________________________________________________________
attention_with_context (Atte [(None, 256), (None, 240) 66048
_________________________________________________________________
dropout_2 (Dropout)          (None, 256)               0
_________________________________________________________________
dense_1 (Dense)              (None, 100)               25700
=================================================================
Total params: 526,068
Trainable params: 526,068
Non-trainable params: 0
_________________________________________________________________

Training model...

Extract top words of test data:
Word Scores:
Type=Word, Dataset=Test, Label=algorithm, Translations=[('algorithm', 75.44259), ('array', 37.02073), ('list', 21.48758), ('int', 
…
