…
    0    0    0    0], label: [0 0 0 0 0 0 0 0 0 0 0 0 0 0 0 0 0 0 0 0 0 0 0 0 0 0 0 0 0 0 0 0 0 0 0 0 0
 0 0 0 0 0 0 0 0 0 0 0 0 0 0 0 0 0 1 0 0 0 0 0 0 0 0 0 0 0 0 0 0 0 0 0 0 0
 0 0 0 0 0 0 0 0 0 0 0 0 0 0 0 0 0 0 0 0 0 0 0 0 0 0]
Train word embedding: True
loss function: binary_crossentropy
Model: "model"
__________________________________________________________________________________________________
 Layer (type)                   Output Shape         Param #     Connected to
==================================================================================================
 input_1 (InputLayer)           [(None, 256)]        0           []

 embedding (Embedding)          (None, 256, 50)      250000      ['input_1[0][0]']

 bidirectional (Bidirectional)  (None, 256, 256)     183296      ['embedding[0][0]']

 embedding_1 (Embedding)        (None, 256, 50)      250000      ['input_1[0][0]']

 embedding_2 (Embedding)        (None, 256, 50)      250000      ['input_1[0][0]']

 dropout (Dropout)              (None, 256, 256)     0           ['bidirectional[0][0]']

 attention_with_context_v3 (Att  [(None, 256, 256),  0           ['embedding_1[0][0]',
 entionWithContextV3)            (None, 256, 256)]                'embedding_2[0][0]',
                                                                  'dropout[0][0]']

 dropout_1 (Dropout)            (None, 256, 256)     0           ['attention_with_context_v3[0][0]
                                                                 ']

 tf.__operators__.getitem (Slic  (None, 256)         0           ['dropout_1[0][0]']
 ingOpLambda)

 dense (Dense)                  (None, 100)          25700       ['tf.__operators__.getitem[0][0]'
                                                                 ]

==================================================================================================
Total params: 958,996
Trainable params: 958,996
Non-trainable params: 0
__________________________________________________________________________________________________

Training model...
Using class_weight!
…
