…
 'variables' 'web-services' 'wordpress' 'wordpress-plugin' 'xampp' 'xml'
 'yii' 'zend-framework' 'zend-framework2']
Number of unique words in this sample dataset: 5394480
Using trained word2vec embedding with shape: (5000, 200)
x_train shape: (405044, 240), y_train shape: (405044, 100)
x_test shape: (101261, 240), y_test shape: (101261, 100)
Train word embedding: True
loss function: binary_crossentropy
_________________________________________________________________
Layer (type)                 Output Shape              Param #
=================================================================
input_1 (InputLayer)         (None, 240)               0
_________________________________________________________________
embedding_1 (Embedding)      (None, 240, 200)          1000000
_________________________________________________________________
bidirectional_1 (Bidirection (None, 240, 128)          136192
_________________________________________________________________
dropout_1 (Dropout)          (None, 240, 128)          0
_________________________________________________________________
attention_with_context (Atte [(None, 128), (None, 240) 16640
_________________________________________________________________
dropout_2 (Dropout)          (None, 128)               0
_________________________________________________________________
dense_1 (Dense)              (None, 100)               12900
=================================================================
Total params: 1,165,732
Trainable params: 1,165,732
Non-trainable params: 0
_________________________________________________________________

Training model...

Extract top words of test data:
Word Scores:
Type=Word, Dataset=Test, Label=.htaccess, Translations=[('rewriterule', 176.16335), ('rewriteengine', 106.57716), ('htaccess',
…
