…
 'struts2' 'swing' 'swt' 'tomcat' 'unit-testing' 'user-interface'
 'web-services' 'windows' 'xml']
Number of unique words in this sample dataset: 4974147
Using trained word2vec embedding with shape: (5000, 100)
x_train shape: (320055, 240), y_train shape: (320055, 100)
x_test shape: (80014, 240), y_test shape: (80014, 100)
Train word embedding: True
loss function: binary_crossentropy
_________________________________________________________________
Layer (type)                 Output Shape              Param #
=================================================================
input_1 (InputLayer)         (None, 240)               0
_________________________________________________________________
embedding_1 (Embedding)      (None, 240, 100)          500000
_________________________________________________________________
bidirectional_1 (Bidirection (None, 240, 256)          235520
_________________________________________________________________
dropout_1 (Dropout)          (None, 240, 256)          0
_________________________________________________________________
attention_with_context (Atte [(None, 256), (None, 240) 66048
_________________________________________________________________
dropout_2 (Dropout)          (None, 256)               0
_________________________________________________________________
dense_1 (Dense)              (None, 100)               25700
=================================================================
Total params: 827,268
Trainable params: 827,268
Non-trainable params: 0
_________________________________________________________________

Training model...

Extract top words of test data:
Word Scores:
Type=Word, Dataset=Test, Label=algorithm, Translations=[('algorithm', 76.3965), ('array', 23.110704), ('int', 19.828989), ('list',
…
